tensorflow/dataset/parameters.npz (npz, 7116 bytes, 4 tensors)

W_h (column-major) f4 [128, 2]
0	0xbeb38e23	-0.3506938
1	0xbeb2af15	-0.34899202
2	0x3d22533d	0.039630163
3	0xbee3d9ef	-0.44502208
4	0x3f981499	1.1881286
5	0x3e819d6e	0.25315422
6	0xbeaa3ea6	-0.33250922
7	0x3ebd3865	0.36957088
8	0x3f04a3c6	0.518124
9	0xbf34d10e	-0.7063149
10	0x3ee4b093	0.44665965
11	0xbe916326	-0.28395957
12	0x3fbf8616	1.4962795
13	0xc01e6059	-2.4746306
14	0x3f4910f6	0.78541505
15	0x3ed52656	0.4163081
16	0xbec56a4b	-0.38557658
17	0xbe67701a	-0.22601357
18	0xbf3cf4d9	-0.7381111
19	0x40206dba	2.5066972
20	0x3d870446	0.06592612
21	0x3f6f8db1	0.9357558
22	0xbed92199	-0.42408445
23	0xbefc8df7	-0.4932706
24	0xbf644d27	-0.89180225
25	0x3f4e0873	0.8048164
26	0x3df9c174	0.121951014
27	0xbed681c4	-0.41895878
28	0x3ed1de1a	0.40989763
29	0xbf0bdca9	-0.54633576
30	0xbebf7c09	-0.3739932
31	0xbecb0efc	-0.3965987
32	0xbd6d5903	-0.057946216
33	0xbe33866e	-0.1753175
34	0xbf85a3f3	-1.0440658
35	0xbe2c039b	-0.1679825
36	0xbeab8e50	-0.33507013
37	0xbef7fa8e	-0.48433346
38	0xbf47075b	-0.777456
39	0x3ed47b97	0.41500542
40	0xbeefc7e4	-0.46832192
41	0xbec9b2b3	-0.3939415
42	0xbeeb6d00	-0.45981598
43	0xbee77c56	-0.45212048
44	0x3ea65369	0.32485512
45	0x3dca13bb	0.098670445
46	0xbfca4afb	-1.5804132
47	0x3ec9f0f3	0.39441642
48	0x401fe525	2.4983609
49	0x3e263a41	0.1623316
50	0xbe31b523	-0.17354254
51	0x3d80809c	0.0627453
52	0xbe2d409c	-0.16919178
53	0xbd57b53c	-0.052663073
54	0x3ec81750	0.39080286
55	0xbe9b9230	-0.3038497
56	0x3d888b8a	0.0666724
57	0xbed0f6a4	-0.40813172
58	0xbef21f28	-0.47289395
59	0x3e15045f	0.14552449
60	0xbe21adcf	-0.15788959
61	0xbefe6bd1	-0.49691632
62	0x3d17dfef	0.037078794
63	0x3f474647	0.7784161
64	0xbe711cb8	-0.23546112
65	0xbed35d36	-0.41282052
66	0x3dd24990	0.10267937
67	0xbf1f28cb	-0.6217162
68	0xbe26144c	-0.1621868
69	0x3d8a424a	0.06750925
70	0xbe3ba21a	-0.18323556
71	0x3d2b8155	0.041871388
72	0xbee2cc94	-0.44296706
73	0x3f9ccee2	1.2250636
74	0x3d314b9c	0.043284997
75	0xbecc07ad	-0.39849606
76	0x3dbc4d79	0.09194464
77	0x3d49ab9e	0.049235933
78	0x3f0379fc	0.5135801
79	0xbe71a85c	-0.2359938
80	0x3fab72b5	1.3394381
81	0xbe9238db	-0.28559002
82	0xbe78fdcd	-0.24315567
83	0x3db00041	0.085937984
84	0xbf06bb8a	-0.5262991
85	0xbe37ab36	-0.17936406
86	0xbe682a1c	-0.22672313
87	0xbec53ba4	-0.38522065
88	0xbdcdd282	-0.10049917
89	0x3dfaafba	0.122405484
90	0xbef0e7d2	-0.47051865
91	0xbe61db05	-0.22056206
92	0x3de1dd93	0.1102859
93	0xbd2e448f	-0.04254585
94	0xbf15de84	-0.58542657
95	0xbec3123d	-0.38099852
96	0xbe1ab9a1	-0.15109874
97	0x3e464fc4	0.19366366
98	0x3eb5ae1b	0.35484394
99	0x3f29e817	0.66369766
100	0xbe638895	-0.2222007
101	0x3f8ccaf9	1.0999442
102	0xbf47624f	-0.7788438
103	0xbed36cf5	-0.41294065
104	0xbec87516	-0.3915183
105	0x3ecc91c9	0.39954975
106	0x3df2ab1f	0.11849045
107	0x3f21321b	0.6296708
108	0x3e1defec	0.15423554
109	0x3ed73cf9	0.42038706
110	0xbe7ac3b4	-0.24488717
111	0xbe5abce3	-0.21361117
112	0x3f1e43bb	0.618221
113	0x3f15181f	0.5823993
114	0x3dd69e23	0.10479381
115	0x3f1d8a2e	0.6153897
116	0x3e53c6fb	0.20681374
117	0xbe5d3434	-0.21601945
118	0x3d8c2a51	0.06844009
119	0x3ed6002a	0.41797
120	0xbebc177a	-0.3673666
121	0xbdda6151	-0.10663093
122	0x3ea2f60b	0.3182834
123	0xbe58ace6	-0.21159706
124	0x3ec48cce	0.38388675
125	0xbf03b445	-0.51446944
126	0x3c7591c0	0.014988363
127	0xbeed235c	-0.4631604
128	0xbea78d06	-0.3272478
129	0xbe8c5e06	-0.27415484
130	0xbef61798	-0.48064876
131	0xbe2661fe	-0.16248319
132	0xbf634858	-0.8878226
133	0xbf05f67c	-0.5232923
134	0xbe826f49	-0.2547553
135	0x3e49aebe	0.19695565
136	0xbea0015a	-0.3125103
137	0x3f4172a8	0.75565577
138	0xbe2aff76	-0.16699013
139	0x3da311ee	0.07962404
140	0xbe66c9b4	-0.22537881
141	0xbf546aa2	-0.8297521
142	0x3fd01ff4	1.6259751
143	0x3e9fd4a9	0.31216934
144	0xbde2aebb	-0.110684834
145	0x3e9230a8	0.28552747
146	0x3f3ed58a	0.74544585
147	0xbd98faa9	-0.07469685
148	0xbee18c20	-0.4405222
149	0xbe40aff8	-0.18817127
150	0xbd751c41	-0.0598414
151	0xbdabfffa	-0.08398433
152	0xbd9e6e83	-0.07735922
153	0xbf4e4159	-0.8056846
154	0x3ecefc05	0.4042665
155	0x3e658181	0.22412683
156	0x3e4c276a	0.1993691
157	0x3ea4d1c4	0.32191288
158	0xbe6c6161	-0.23084022
159	0x403228e4	2.7837458
160	0xbf04208a	-0.5161215
161	0x3eb54a49	0.35408238
162	0x3f5b9de4	0.85787797
163	0x3eb00a54	0.3438288
164	0xbea389f1	-0.31941178
165	0xbe590da4	-0.2119661
166	0x3eed28db	0.46320233
167	0x3e49be83	0.1970158
168	0x3eeb8e97	0.46007225
169	0xbe9cd4b8	-0.30631042
170	0x3de256bd	0.110517
171	0xbe67e896	-0.22647318
172	0x3e254230	0.1613853
173	0xbed0c796	-0.40777272
174	0x3d6bc0a2	0.057556756
175	0x3e665a7b	0.22495453
176	0x40362679	2.8460982
177	0xbea945ed	-0.33061162
178	0x3ed6a3c0	0.41921806
179	0xbf0b3ee7	-0.54392856
180	0x3ec8ff3b	0.39257225
181	0xbf0ddc4f	-0.5541429
182	0x3e647b96	0.2231277
183	0xbe9cf3af	-0.30654666
184	0xbeee23c7	-0.4651167
185	0x3e820454	0.25393927
186	0x39bbbf92	0.0003581015
187	0xbec7082f	-0.3887343
188	0x3e98a9b1	0.29816964
189	0xbe954d84	-0.29160702
190	0xbee9fe97	-0.4570205
191	0x3e8c53fd	0.27407828
192	0x3ec90bb6	0.39266747
193	0xbe3e1386	-0.18562135
194	0xbebfa4eb	-0.3743051
195	0xbd4b7ee6	-0.049681567
196	0x3ef68b17	0.48152992
197	0xbed11aab	-0.4084066
198	0x3f127987	0.57216686
199	0xbee8aa29	-0.45442322
200	0xbe793c12	-0.24339321
201	0x3f162244	0.58646035
202	0xbed939b8	-0.42426848
203	0xbe49e816	-0.1971744
204	0xbeed5493	-0.46353588
205	0xbf0f3a7e	-0.55948627
206	0xbd867914	-0.065660626
207	0x3eacbec6	0.337393
208	0x3f9334b1	1.1500455
209	0x3ed84a76	0.4224431
210	0x3e9710f7	0.2950513
211	0xbede0c89	-0.4336894
212	0xbdd3dd81	-0.10344983
213	0x3ed30689	0.41215923
214	0xbeb38087	-0.35058996
215	0xbe4f586b	-0.20248573
216	0x3ec66668	0.38750005
217	0xbee96fad	-0.45593014
218	0xbe519147	-0.20465575
219	0x3ed33ac6	0.41255778
220	0xbeecda4e	-0.46260303
221	0x3ed2249c	0.41043556
222	0x3f4654d2	0.77473176
223	0x4023bd74	2.5584383
224	0x3ea7e3f3	0.327911
225	0xbf2c0cb2	-0.6720687
226	0x3e6dbde1	0.23216964
227	0xbf2c5d7d	-0.6733015
228	0x3f09f721	0.53892714
229	0xbf4bbf69	-0.79588944
230	0x3e388e9a	0.18023148
231	0xbe99ff7e	-0.30077738
232	0xbd9b2314	-0.0757505
233	0x3ecaf578	0.39640403
234	0xbec88369	-0.39162758
235	0xc0488046	-3.1328292
236	0xbedb7e5c	-0.42869842
237	0x3e0d72de	0.1381335
238	0x3f0f5894	0.55994534
239	0x3f5e6e88	0.8688741
240	0xbf3e761a	-0.7439896
241	0xbf73021b	-0.9492509
242	0xbec06626	-0.37577933
243	0xbe1373e2	-0.14399675
244	0xbea545d6	-0.32279843
245	0x3ea9654c	0.33085096
246	0xbec19753	-0.37810764
247	0x3e760af2	0.24027613
248	0xbea8c076	-0.32959336
249	0xbf145597	-0.579431
250	0x3e07be78	0.13256252
251	0x3eca28c9	0.39484242
252	0x3ec22366	0.37917632
253	0xbe73a7dc	-0.23794502
254	0xbee98c4a	-0.45614845
255	0xbe7f5afe	-0.24937055

b_h f4 [128]
0	0x3fb6b0ed	1.4272743
1	0x3f53c374	0.8272011
2	0x3f90e594	1.1320062
3	0x3f5de666	0.86679685
4	0x3e54ca94	0.20780402
5	0xbf50bb33	-0.81535643
6	0x3ed9bf61	0.42528823
7	0xbf15601f	-0.58349794
8	0x3f8b762b	1.0895437
9	0x3e44ab92	0.19206074
10	0x3f087de2	0.5331708
11	0xbd6ec33b	-0.058291655
12	0x3f0395fa	0.5140072
13	0xbd5d11ef	-0.05397218
14	0x3eb31ebc	0.34984386
15	0xbf8dec08	-1.1087656
16	0x3e950787	0.29107305
17	0x3ed35284	0.41273892
18	0xbd98b8dd	-0.07457135
19	0x3f0552ca	0.5207945
20	0x3fcab80a	1.5837414
21	0x3f0336ca	0.51255476
22	0x3f0e1697	0.5550322
23	0x3fa3540d	1.2760025
24	0x3ebc66b9	0.3679712
25	0x3f4b0f40	0.79320145
26	0xbf24f8bb	-0.6444203
27	0x3f684cb2	0.9074203
28	0xbf566304	-0.83744836
29	0x3f40d7fa	0.75329554
30	0x3f42b6f0	0.7606039
31	0x3ed5c66d	0.4175295
32	0x3fc7045d	1.5548207
33	0x3f05dc1b	0.5228898
34	0x3f00d4da	0.50324786
35	0xbeeb1a46	-0.45918483
36	0x3f9c4dcb	1.221124
37	0x3f7c1ca2	0.9848119
38	0x3fb0727b	1.3784937
39	0xbf1ec1f2	-0.6201469
40	0x3f225057	0.6340384
41	0x3fbb6b5a	1.4642136
42	0x3f4b141c	0.7932756
43	0x3fb6679d	1.425037
44	0xbdddac25	-0.108238496
45	0x3ed3a57a	0.41337186
46	0x3ce398c8	0.027782813
47	0xbf911df3	-1.1337265
48	0x3ea4774f	0.32122275
49	0x3f575e8d	0.8412865
50	0xbf1c4d6c	-0.61055636
51	0x3f6866d0	0.9078188
52	0x3ee02cb0	0.43784094
53	0x3fa8bef6	1.3183277
54	0xbf8225aa	-1.0167744
55	0x3f83ef7b	1.0307459
56	0x3f8cce50	1.1000462
57	0x3facf620	1.3512611
58	0x3ed2171e	0.41033262
59	0x3f99e1bc	1.2022014
60	0xbf38d7bc	-0.72204185
61	0x3f02b284	0.51053643
62	0x3f960cd6	1.1722667
63	0x3f1c7779	0.611198
64	0x3eec3d17	0.46140358
65	0x3f170441	0.58990866
66	0x3f70fd3d	0.9413641
67	0x3dfd9c51	0.123833306
68	0x3f3e6c5e	0.74384105
69	0x3f0e0680	0.5547867
70	0x3fb00fa7	1.3754777
71	0x3f507b21	0.8143788
72	0x3f7d7cf8	0.9901881
73	0x3ef7c0ab	0.48389181
74	0x3fb425b3	1.4074005
75	0x3f41898a	0.7560049
76	0x3fd22036	1.641608
77	0x3f588757	0.8458151
78	0x3e48b725	0.19601114
79	0x3ecbd357	0.39809677
80	0x3ee5fdb5	0.44920126
81	0x3f88cb63	1.0687069
82	0x3f08887b	0.5333325
83	0x3f3d8851	0.7403613
84	0x3f953ffd	1.1660153
85	0x3f216f9d	0.63060933
86	0x3f80b1dd	1.005428
87	0x3eccccd7	0.4000003
88	0xbf71ef26	-0.94505537
89	0x3fc0a387	1.5049905
90	0x3f95ecb7	1.1712865
91	0x3f3a12ea	0.7268511
92	0x3f7bd49d	0.983713
93	0x3de17b88	0.1100989
94	0x3e5f8896	0.21829447
95	0x3f3ee473	0.74567336
96	0x3e8ae62e	0.27128738
97	0x3f105245	0.56375533
98	0xbf71d8b5	-0.94471294
99	0xbd454d10	-0.048169196
100	0x3f8aab45	1.0833517
101	0x3ea09ac5	0.3136808
102	0xbf335f9c	-0.70067763
103	0x3fe44091	1.7832204
104	0x3dffff77	0.12499898
105	0xbededc18	-0.43527293
106	0x3f89ab18	1.0755339
107	0x3d9be3bc	0.07611796
108	0x3fac8b3d	1.3479992
109	0xbf374e79	-0.71604115
110	0x3fc20f1c	1.5160861
111	0xbf74152b	-0.953448
112	0x3ee70a46	0.45125026
113	0x3fb2de74	1.3974137
114	0x3ebb9aff	0.3664169
115	0xbd0638b0	-0.032768905
116	0xbe9d86c5	-0.30766883
117	0x3e2b0241	0.16700079
118	0x3f72cdaa	0.9484507
119	0xbf2a47b0	-0.66515636
120	0x3faaaf39	1.3334724
121	0x3fcf2fd3	1.618647
122	0xbed4ffa0	-0.41601276
123	0xbcf41213	-0.029793775
124	0xbf8b6f12	-1.0893271
125	0x3fb1f2ba	1.3902199
126	0x3f5ee691	0.87070566
127	0x3f8b2a04	1.0872197

W_o (column-major) f4 [10, 128]
0	0xbd3db2f5	-0.046313245
1	0x3ecf94e1	0.40543273
2	0x3e8b667f	0.27226636
3	0xbeb6795b	-0.35639462
4	0xbf459d00	-0.7719269
5	0x3dc01308	0.0937863
6	0xbf3a35c2	-0.7273828
7	0x3e7fe9b5	0.24991496
8	0x3f64c568	0.8936372
9	0xbfba5433	-1.4556946
10	0xbc9b8d5f	-0.01898831
11	0x3e8031f5	0.25038114
12	0x3ed0917e	0.40736002
13	0xbdf46b88	-0.119345725
14	0xbf4ab4a5	-0.7918189
15	0xbea689ea	-0.32527095
16	0xbf8e2602	-1.1105349
17	0x3f26b006	0.6511234
18	0x3fb0486b	1.37721
19	0xbfd0e6a4	-1.6320386
20	0x3d3d7625	0.04625525
21	0x3e8a6574	0.27030528
22	0x3cd8a267	0.026444627
23	0xbf85fab1	-1.046713
24	0x3edfe279	0.43727472
25	0xbd5dda84	-0.05416347
26	0xbf809e6e	-1.0048349
27	0x3efb4f06	0.49083728
28	0xc0506514	-3.2561693
29	0xbf27b486	-0.6550983
30	0x3e602f53	0.21893053
31	0x3e39469b	0.1809334
32	0x3e7b98cd	0.24570008
33	0x3ce7c84f	0.028293757
34	0xbf8ed444	-1.1158528
35	0xbd9f36a9	-0.077740975
36	0xbe1cf0fd	-0.15326305
37	0x3ed0e958	0.40803027
38	0x3f8385df	1.0275229
39	0xbf905c8d	-1.1278244
40	0xbf9ada5f	-1.2097892
41	0xbd0cb24f	-0.034349736
42	0xbeafade9	-0.3431237
43	0x3f850317	1.0391568
44	0x3f3e847e	0.7442092
45	0x3ef6e4ee	0.48221534
46	0xc0692ad1	-3.6432383
47	0x3e341b76	0.175886
48	0xbf63ffda	-0.89062274
49	0x3f221de8	0.63326883
50	0xbec027b5	-0.37530294
51	0xbec6c820	-0.38824558
52	0xbdf1a084	-0.11798194
53	0xbef559b3	-0.47919998
54	0x3f544ef4	0.8293297
55	0x3dc0691e	0.093950495
56	0xbf8dca8e	-1.107744
57	0x3fb35829	1.4011279
58	0xbfef6879	-1.8703758
59	0xbeae1f2c	-0.34008157
60	0xbda43bfe	-0.08019255
61	0x3ea76830	0.32696676
62	0x3e80146d	0.25015584
63	0xbdb22d7f	-0.08700084
64	0xbeb622fb	-0.35573563
65	0x3be395a7	0.00694533
66	0xbecc4f01	-0.39904025
67	0x3f75e4bc	0.96052146
68	0x3fb574b4	1.417624
69	0xbf601644	-0.87533975
70	0xbdfe98cd	-0.12431488
71	0xbefef9c2	-0.49799925
72	0xbd30701f	-0.043075677
73	0x3ce5e4d8	0.028063223
74	0x3ea9d502	0.33170325
75	0x3d273e11	0.040830676
76	0x3ebb427d	0.36574164
77	0xc017dfe7	-2.373041
78	0xc0173d78	-2.3631268
79	0x3f0120b6	0.5044054
80	0x3e708771	0.23489167
81	0x3e5d82d6	0.21631941
82	0x3dddc444	0.1082845
83	0xbf3aecb1	-0.7301741
84	0x3e9abf60	0.30224133
85	0x3ecc05a6	0.3984806
86	0xbea0a5c7	-0.31376478
87	0xbfe199ab	-1.7625021
88	0xc0a07a37	-5.014919
89	0x3e46f5dd	0.19429727
90	0xbcb29ee3	-0.021804279
91	0xbf43dba7	-0.7650704
92	0x3e0d753b	0.13814251
93	0x3ebb2fa6	0.3655979
94	0xbff5dfeb	-1.9208959
95	0xbfc08ac7	-1.5042351
96	0x3ed5c944	0.41755116
97	0x3f6008b5	0.87513286
98	0x3e0b0196	0.13574824
99	0xbf3d4680	-0.739357
100	0x3e2fbef3	0.17162685
101	0xbe25de36	-0.16198048
102	0x3e789215	0.24274476
103	0xbf0ae804	-0.5426028
104	0x3ea9a87f	0.33136365
105	0x3e85773c	0.2606753
106	0xbee31f1a	-0.44359666
107	0xbfdda7a5	-1.7316786
108	0xc085e5d3	-4.1843047
109	0x3ea4d1e1	0.32191375
110	0xbe3342de	-0.17505977
111	0xbe51c111	-0.20483805
112	0x3d9ee57c	0.077586144
113	0xbd26c7b1	-0.040717784
114	0xbf5c8c51	-0.86151606
115	0x3e807a18	0.2509315
116	0x3d127a3c	0.035761103
117	0x3f3db390	0.74102116
118	0x3f931e22	1.1493571
119	0xbdcbf5bf	-0.09958982
120	0xbd73c2e6	-0.05951204
121	0x3d93e6e4	0.07221773
122	0xbf002f07	-0.5007176
123	0xbef6525e	-0.48109716
124	0x3e1225da	0.14272252
125	0x3e56ab43	0.20963769
126	0x3e1edf09	0.15514769
127	0xc012914e	-2.2901187
128	0xc0578364	-3.3673944
129	0x3ed6bb12	0.41939598
130	0xbf98a14d	-1.1924225
131	0xbf4117da	-0.7542702
132	0x3f8796dd	1.0592915
133	0x3fd09b61	1.6297418
134	0x3fa2aff3	1.2709945
135	0xc062286e	-3.5337176
136	0xbfd814c8	-1.6881342
137	0x3ec2d460	0.38052654
138	0x3fed9cec	1.8563514
139	0xbf3770bd	-0.716564
140	0xbd4c52c1	-0.049883608
141	0xbd852879	-0.0650186
142	0xbf2926d1	-0.66074854
143	0xbda1e1fc	-0.07904431
144	0x3bc10193	0.0058900802
145	0x3eae1fb7	0.34008572
146	0x3e9df153	0.30848178
147	0xc0170591	-2.3597147
148	0xc00d26b7	-2.205488
149	0x3ef9a222	0.4875651
150	0xbe299cfe	-0.16563794
151	0xbf23748a	-0.638497
152	0xbef01597	-0.46891472
153	0x3e9239c8	0.2855971
154	0x3ec32bb0	0.38119268
155	0x3e862e1e	0.2620706
156	0x3ec3ef47	0.38268492
157	0xbfecfdd1	-1.8514959
158	0xbffca8c3	-1.9739002
159	0x3f09aba3	0.5377752
160	0xbe0554c4	-0.13020617
161	0x3e1fbdbb	0.1559972
162	0xbd1c5fb9	-0.038177226
163	0x3e33a750	0.17544293
164	0xbf9d2778	-1.227767
165	0xbd745ec6	-0.059660695
166	0xbe5bdd78	-0.21471202
167	0x3f6b16ee	0.9183186
168	0x3fa7e69e	1.3117254
169	0xbf577587	-0.8416371
170	0xbdfd8c5b	-0.12380286
171	0xbd9e25d5	-0.0772206
172	0xbe3e282e	-0.18570015
173	0x3d6da12f	0.058015045
174	0xbfb24a02	-1.3928835
175	0x3bd26da5	0.006421762
176	0x3e391396	0.18073878
177	0xbf656d5c	-0.89619994
178	0x3f26db37	0.65178245
179	0x3ea7ef7f	0.3279991
180	0xbe0e393c	-0.1388902
181	0xbf2a2f41	-0.66478354
182	0x3e14ae49	0.1451961
183	0x3e69af74	0.22820836
184	0xc00b3948	-2.1753712
185	0xbfcd81f4	-1.6055284
186	0x3f1300e8	0.5742326
187	0x3f7ed8de	0.99549663
188	0x3e8651d3	0.26234302
189	0xbebfa7e2	-0.37432772
190	0xbc6138e8	-0.013746478
191	0x3ea7ff31	0.32811883
192	0xbf3f52ff	-0.74736017
193	0xbedda716	-0.4329154
194	0x3e295b5e	0.1653876
195	0x3e073d12	0.1320689
196	0x3e70de35	0.23522265
197	0xbf9dfed8	-1.2343397
198	0xbfb71533	-1.4303344
199	0x3e840a88	0.25789285
200	0x3e0e2622	0.13881734
201	0x3ef3cc96	0.47617024
202	0x3f0a656c	0.5406101
203	0xbf7750ac	-0.9660747
204	0x3f23f79d	0.640497
205	0x3bc0cb21	0.00588359
206	0xbf848338	-1.0352545
207	0x3eaed9b2	0.34150463
208	0xc0261e7e	-2.595611
209	0xbfab3ab1	-1.3377286
210	0xbb320676	-0.0027164496
211	0x3e29772b	0.16549365
212	0xbee26da6	-0.4422428
213	0xbf43b821	-0.76452833
214	0x3e69f4de	0.22847316
215	0x3ecde48f	0.4021344
216	0xbdd9482a	-0.10609467
217	0xc027a608	-2.6195087
218	0xc088873f	-4.2665095
219	0x3f234e17	0.6379103
220	0x3dcff933	0.10154953
221	0x3cfdd6d9	0.030986236
222	0xbdaedbef	-0.08538043
223	0x3e4d70ec	0.20062608
224	0xbfb34ffe	-1.4008787
225	0xbc92bf89	-0.017913597
226	0x3dd8fa54	0.10594621
227	0x3f571ca8	0.840281
228	0x3f6d280c	0.9263923
229	0xbf441c86	-0.76606023
230	0xbe025e3e	-0.12731263
231	0x3e37e195	0.17957146
232	0x3e81397f	0.2523918
233	0x3e8d498c	0.27595174
234	0xc00404bb	-2.0627887
235	0xbefcd676	-0.4938237
236	0xbcd94e61	-0.026526632
237	0x3eaa1ad1	0.33223584
238	0x3f06363d	0.5242651
239	0xbfa6c855	-1.3029886
240	0x3e9fcf46	0.31212825
241	0xbe096e03	-0.13420872
242	0x3e906e33	0.28209075
243	0x3f03b72e	0.51451385
244	0xbfc22466	-1.5167358
245	0xbf7d3cf5	-0.9892114
246	0xbe5b6457	-0.21424995
247	0x3f1716a2	0.5901891
248	0x3f3fd27a	0.74930537
249	0xbfb31cce	-1.3993165
250	0x3e8d5804	0.27606213
251	0x3e9f4955	0.31110635
252	0xbf26ba86	-0.6512836
253	0xbebc729e	-0.36806196
254	0x3efce10d	0.4939045
255	0x3eb4e551	0.35331205

b_o f4 [10]
0	0xbc8498ac	-0.01618608
1	0xbe139c94	-0.14415199
2	0xbc8f0f05	-0.017463217
3	0x3d6dbb20	0.058039784
4	0x3dad141a	0.084511
5	0x3d03d448	0.03218487
6	0x3d1953d3	0.037433457
7	0xbe1b9e99	-0.15197219
8	0x3cd72be6	0.02626605
9	0x3e1dfdc0	0.15428829
